model_checkpoint.pt (torch, 4393 bytes, 10 tensors)

conv1.att_src f4 [1, 2, 16]
000000 79 6b ad bf 8a 8c 4a c0 b2 f4 46 c0 dc f8 8d bd
       -1.3548423 -3.1648278 -3.108685 -0.06932232
000010 3f 8d b4 bd 24 cd 81 3e 34 98 12 3f f7 1b f6 3f
       -0.08816003 0.25351822 0.57263494 1.9227284
000020 50 79 a2 3e 3f a9 80 3f c4 54 37 40 91 2b 01 bf
       0.3173318 1.005165 2.8645487 -0.504571
000030 04 3f 99 bf e8 78 17 3e ae 42 70 3f 20 9b 34 3f
       -1.1972356 0.14792216 0.93851745 0.705492
000040 da 12 87 3d b7 90 b9 be 92 be 04 bf e9 93 df 3f
       0.065953925 -0.3624322 -0.5185329 1.7467014
000050 fb 49 bc 3f 7f e5 1c 3f db d8 13 bf 62 6b 59 3f
       1.4710077 0.61287683 -0.5775277 0.8492948
000060 9e e7 07 c0 68 95 09 c0 63 7d f2 3d 05 05 9d be
       -2.1235118 -2.149744 0.11840322 -0.30667892
000070 16 82 e6 3e 29 4b 95 be 60 63 88 3e ce 0b 65 3f
       0.45021123 -0.29158905 0.26638317 0.8947114

conv1.att_dst f4 [1, 2, 16]
000000 41 8a 8f c0 c1 ef 31 40 e7 db 9c bf 1b 8c 32 40
       -4.4856267 2.7802584 -1.2254609 2.7898014
000010 32 2e 2f c0 07 1e a4 bf 2e b7 aa 3c b1 fc 38 41
       -2.7371945 -1.2821664 0.0208393 11.561692
000020 a7 24 d3 bf 0e 35 17 bf 49 f2 64 40 f6 6c e7 3f
       -1.649556 -0.5906533 3.577288 1.8080127
000030 4f ec 2d c0 28 25 33 c0 ef d3 48 bf 81 88 8c 40
       -2.7175481 -2.7991428 -0.78448385 4.391663
000040 9c 69 f7 3f 7c a9 ab 40 e8 26 47 c0 fc 82 23 3f
       1.9329104 5.364439 -3.1117496 0.6387174
000050 6f cf 6f bf 68 fa 68 40 bf 9d d9 3f 13 b1 7c 40
       -0.93675894 3.6402836 1.7001265 3.9483078
000060 85 1b 04 c0 07 e5 a1 c0 55 c3 9f be b7 1e 93 3f
       -2.0641797 -5.0592074 -0.31203714 1.1493748
000070 9a d4 21 3f b2 02 28 be dc 01 8e bf 4f e5 9e 40
       0.6321503 -0.16407278 -1.1094317 4.965492

conv1.bias f4 [32]
000000 d9 b7 2e bf a1 d9 12 bc f7 bf ff be 22 75 8e 3e
       -0.6824928 -0.00896302 -0.49951145 0.2782374
000010 0b b3 e1 be da 3c 06 bf 0b d0 45 bf 19 06 2a 3e
       -0.4408191 -0.524366 -0.77270573 0.16603889
000020 b8 f9 23 bf b9 61 3f bf 1e 9a 11 bf 81 58 ab 3e
       -0.64052916 -0.7475849 -0.5687579 0.3346596
000030 8d 8e 35 be 1f 04 3f bf 14 10 54 bf f6 d1 47 3e
       -0.1773016 -0.74615663 -0.82837033 0.19513687
000040 b4 fd d0 3e 65 4a 06 3d a2 ae 27 bf a2 08 f8 be
       0.4081856 0.032785792 -0.65500844 -0.48444086
000050 a5 fe 0c 3f 2f de ce 3e 12 49 6c 3e e8 af b5 3e
       0.55076057 0.40403888 0.23074749 0.35485768
000060 88 00 92 3e 4a a6 b1 be ac 22 59 bf 07 5c f1 3e
       0.2851603 -0.3469718 -0.8481853 0.47140524
000070 dd ad 92 bf 48 22 82 bf bf 67 0e 3f 9f 35 6e 3d
       -1.1459309 -1.0166712 0.55627054 0.058156606

conv1.lin_src.weight f4 [32, 3]
000000 3d 26 3d bf e3 59 90 3f 0f 24 d4 3e 73 8e 19 c0
       -0.7388647 1.1277431 0.4143376 -2.3993194
000010 d6 77 4d be 31 0e 1b 3f 75 55 09 c0 2f fb 94 3f
       -0.20065245 0.6056853 -2.145841 1.1639155
000020 2c b7 12 bf ab ae 93 3e 5e f1 65 bf cd 60 09 be
       -0.5731075 0.288442 -0.8982142 -0.13415833
000030 b0 67 4b bb f7 96 b0 3f 48 d3 fc bd 8d 3c 8f 3e
       -0.0031037144 1.3796071 -0.12344986 0.27975884
000040 d6 c2 79 3f 1a aa a3 3e 63 91 b7 3f b5 4a 94 bf
       0.9756292 0.31965715 1.4341244 -1.1585299
000050 81 16 01 3e 33 eb 26 3f c2 48 bc bf 8e 1e a6 3e
       0.12606241 0.65202636 -1.4709704 0.32445186
000060 e4 ec 04 3f 18 98 7f 3f e1 df 3a 3e 02 c4 8c 3f
       0.51923966 0.9984145 0.18249466 1.0997317
000070 22 b2 5a 3e 16 6a 02 3e 56 e5 d0 3f ad 62 02 c0
       0.21357015 0.12735781 1.6319988 -2.0372727
000080 9a c5 2b 3f 17 ea d9 3d 48 80 3b bf 25 5d 5c be
       0.6709839 0.10640352 -0.73242617 -0.21519907
000090 ce 38 5d bf 87 6d dd 3f db 9a f5 38 f8 ae ca bd
       -0.864148 1.729905 0.000117113545 -0.09896654
0000a0 a3 16 58 3f b8 29 69 be 8b 21 8e 3f 25 41 ba be
       0.8440954 -0.2276982 1.1103987 -0.36377826
0000b0 fb 13 20 be 4e c4 14 3f af 47 a2 bf dd 49 03 3e
       -0.15632622 0.5811204 -1.2678126 0.12821145
0000c0 64 b2 3e bf f3 57 85 bd bb c6 6e 3e e0 2a 88 bf
       -0.7449095 -0.065109156 0.23317997 -1.0638084
0000d0 d2 45 8f be bd 22 44 3f 69 bb 8c 3f f5 6b b1 3d
       -0.27982956 0.76615506 1.0994693 0.08663169
0000e0 eb c8 cb be 2f 64 a8 be f2 99 81 3f 4c 47 94 bb
       -0.39801726 -0.32888934 1.0125105 -0.004525101
0000f0 75 db c8 bf d0 94 2b 3f af 30 54 bf 7d cf 53 bf
       -1.5691973 0.67023945 -0.82886785 -0.82738477
000100 9e 7d 00 bd 91 e3 f1 3e ee 10 b7 3e 26 98 ab bf
       -0.031369798 0.47243932 0.35755104 -1.3405807
000110 84 39 02 3e ca e8 6d bf 79 2b eb 3e fb 8b 47 3e
       0.12717253 -0.9293333 0.45931605 0.19486992
000120 76 94 85 3e 37 c4 a9 bf aa 2c 77 3d d7 09 cc 3f
       0.2608983 -1.3263005 0.06034533 1.5940503
000130 66 a0 87 bf b7 7d f1 bd 03 c4 4c 3f 60 6a 95 3e
       -1.0595825 -0.11791556 0.7998659 0.2918272
000140 63 2c bd 3d e5 37 04 bf 22 96 14 bf e4 52 07 3e
       0.09236982 -0.5164779 -0.58041584 0.13215214
000150 4a 62 1f 3f a0 54 bb 3e 3f 00 d2 3e 39 d2 56 3f
       0.6225935 0.36588 0.41015813 0.83914524
000160 37 54 9a 3e f3 d2 d5 3d 68 2a 88 bf 95 d6 08 c0
       0.30142376 0.10440626 -1.0637941 -2.138097
000170 ac d5 c0 bf ce 4e b6 bf f0 c2 5f 3f 02 0a ae 3e
       -1.5065207 -1.4242799 0.87406826 0.3399201

conv1.lin_dst.weight f4 [32, 3]
000000 3d 26 3d bf e3 59 90 3f 0f 24 d4 3e 73 8e 19 c0
       -0.7388647 1.1277431 0.4143376 -2.3993194
000010 d6 77 4d be 31 0e 1b 3f 75 55 09 c0 2f fb 94 3f
       -0.20065245 0.6056853 -2.145841 1.1639155
000020 2c b7 12 bf ab ae 93 3e 5e f1 65 bf cd 60 09 be
       -0.5731075 0.288442 -0.8982142 -0.13415833
000030 b0 67 4b bb f7 96 b0 3f 48 d3 fc bd 8d 3c 8f 3e
       -0.0031037144 1.3796071 -0.12344986 0.27975884
000040 d6 c2 79 3f 1a aa a3 3e 63 91 b7 3f b5 4a 94 bf
       0.9756292 0.31965715 1.4341244 -1.1585299
000050 81 16 01 3e 33 eb 26 3f c2 48 bc bf 8e 1e a6 3e
       0.12606241 0.65202636 -1.4709704 0.32445186
000060 e4 ec 04 3f 18 98 7f 3f e1 df 3a 3e 02 c4 8c 3f
       0.51923966 0.9984145 0.18249466 1.0997317
000070 22 b2 5a 3e 16 6a 02 3e 56 e5 d0 3f ad 62 02 c0
       0.21357015 0.12735781 1.6319988 -2.0372727
000080 9a c5 2b 3f 17 ea d9 3d 48 80 3b bf 25 5d 5c be
       0.6709839 0.10640352 -0.73242617 -0.21519907
000090 ce 38 5d bf 87 6d dd 3f db 9a f5 38 f8 ae ca bd
       -0.864148 1.729905 0.000117113545 -0.09896654
0000a0 a3 16 58 3f b8 29 69 be 8b 21 8e 3f 25 41 ba be
       0.8440954 -0.2276982 1.1103987 -0.36377826
0000b0 fb 13 20 be 4e c4 14 3f af 47 a2 bf dd 49 03 3e
       -0.15632622 0.5811204 -1.2678126 0.12821145
0000c0 64 b2 3e bf f3 57 85 bd bb c6 6e 3e e0 2a 88 bf
       -0.7449095 -0.065109156 0.23317997 -1.0638084
0000d0 d2 45 8f be bd 22 44 3f 69 bb 8c 3f f5 6b b1 3d
       -0.27982956 0.76615506 1.0994693 0.08663169
0000e0 eb c8 cb be 2f 64 a8 be f2 99 81 3f 4c 47 94 bb
       -0.39801726 -0.32888934 1.0125105 -0.004525101
0000f0 75 db c8 bf d0 94 2b 3f af 30 54 bf 7d cf 53 bf
       -1.5691973 0.67023945 -0.82886785 -0.82738477
000100 9e 7d 00 bd 91 e3 f1 3e ee 10 b7 3e 26 98 ab bf
       -0.031369798 0.47243932 0.35755104 -1.3405807
000110 84 39 02 3e ca e8 6d bf 79 2b eb 3e fb 8b 47 3e
       0.12717253 -0.9293333 0.45931605 0.19486992
000120 76 94 85 3e 37 c4 a9 bf aa 2c 77 3d d7 09 cc 3f
       0.2608983 -1.3263005 0.06034533 1.5940503
000130 66 a0 87 bf b7 7d f1 bd 03 c4 4c 3f 60 6a 95 3e
       -1.0595825 -0.11791556 0.7998659 0.2918272
000140 63 2c bd 3d e5 37 04 bf 22 96 14 bf e4 52 07 3e
       0.09236982 -0.5164779 -0.58041584 0.13215214
000150 4a 62 1f 3f a0 54 bb 3e 3f 00 d2 3e 39 d2 56 3f
       0.6225935 0.36588 0.41015813 0.83914524
000160 37 54 9a 3e f3 d2 d5 3d 68 2a 88 bf 95 d6 08 c0
       0.30142376 0.10440626 -1.0637941 -2.138097
000170 ac d5 c0 bf ce 4e b6 bf f0 c2 5f 3f 02 0a ae 3e
       -1.5065207 -1.4242799 0.87406826 0.3399201

conv2.att_src f4 [1, 1, 3]
000000 a2 2b cb be 2d ad 7f 3e 43 93 4d bf
       -0.39681727 0.24968405 -0.8030283

conv2.att_dst f4 [1, 1, 3]
000000 13 84 1e 40 ed bc e5 c0 fb 39 2a 40
       2.4768112 -7.179312 2.6597888

conv2.bias f4 [3]
000000 dd 2f 37 bf 29 25 ff be 00 00 00 00
       -0.7155741 -0.49833038 0.0

conv2.lin_src.weight f4 [3, 32]
000000 f1 23 ed 3f 13 11 97 bf 0c f8 61 3e fe af b9 be
       1.8526593 -1.1802086 0.22067279 -0.36267084
000010 64 55 6d 3f 0f b6 46 3f 9a 1a 87 40 26 f2 d9 3e
       0.9270842 0.7762155 4.2219973 0.42567557
000020 a9 a4 4e 3f 2e 52 84 3f 11 d2 27 40 aa 98 ec be
       0.8072 1.0337579 2.6221964 -0.46210223
000030 0d 0a 20 3f 37 aa 0e 3f 27 69 18 40 3f a2 bf 3d
       0.62515336 0.5572848 2.381418 0.09357118
000040 41 61 51 bf 12 6f 90 3e 41 f6 cd 3f 23 56 6b bf
       -0.8178902 0.2820974 1.6090776 -0.9192831
000050 c7 81 01 c0 ee 18 49 bf 0c e5 26 bf 46 b7 71 bf
       -2.023546 -0.78553665 -0.6519325 -0.9442028
000060 1c 57 df be c1 d1 cd 3f a4 38 0a 3f 1a 84 40 bf
       -0.43621147 1.6079637 0.53992677 -0.7520157
000070 c2 29 8d 3f fe 0b a2 3f e0 f7 36 c0 f8 d2 4b bf
       1.1028368 1.265991 -2.858879 -0.7961879
000080 92 37 2b 40 ab 96 0d 3f 56 52 77 be 37 4c 5f bf
       2.6752667 0.55308026 -0.24152502 -0.8722567
000090 e7 d0 3e 3f 3d 03 24 3f b0 e2 96 3f 8f 8b 1f bf
       0.7453751 0.6406744 1.178793 -0.62322325
0000a0 95 2c 1e 3f e6 65 26 3f 26 da 48 3f af 5f 6c bf
       0.61786777 0.64999235 0.7845787 -0.923335
0000b0 24 96 2c 3f f8 1f 57 3f ba 7b 22 3f f4 05 36 bf
       0.67416596 0.84033155 0.6347004 -0.71102834
0000c0 b8 19 a5 be fd 6b ae 3c e4 2a 42 3e 33 11 f1 3f
       -0.32246184 0.021291727 0.18961674 1.8833374
0000d0 db ba 37 bf bb 79 5c be 3c 27 10 c0 58 c1 80 be
       -0.71769494 -0.21530811 -2.2523947 -0.2514751
0000e0 f8 e1 d7 bf 58 91 17 3e 66 6f 1e 3f f9 90 0c bf
       -1.6865835 0.14801538 0.6188873 -0.5490871
0000f0 28 4b e8 3f 0d 5b 84 3f e0 a2 4c c0 82 ca 87 bd
       1.8147936 1.0340286 -3.197441 -0.06630422
000100 c3 cb 92 bf d3 44 4a 3f ae 05 32 bb a3 85 b0 3b
       -1.1468433 0.7901127 -0.002716403 0.0053870245
000110 72 69 8e 3f 70 1c 81 3f e8 9c d1 3e a3 bc 1b bd
       1.1125929 1.0086803 0.40940022 -0.038021695
000120 8e 7c 6a 3f e3 27 63 3f fd 73 1f 3f c8 75 0c ba
       0.91596305 0.8873274 0.6228636 -0.0005358127
000130 b5 51 80 3f 83 8b 48 bf 9f 75 12 3f 0f 07 35 3c
       1.0024935 -0.7833788 0.57210726 0.011049046
000140 20 cb 9d 3e bb 2c 8b 3f be bb 8e bf d4 a8 3b 3f
       0.30819035 1.0873026 -1.1151044 0.73304486
000150 0a 4b ab 3f 5d b4 98 3e 25 88 78 bf 6a e8 a9 3e
       1.3382275 0.29825106 -0.9708274 0.3318513
000160 33 ce 40 bf 49 2f 8d bf e1 9e a4 3d c4 a4 34 3e
       -0.75314635 -1.1030055 0.08038116 0.17640978
000170 d6 4d be be a3 5f e3 be 97 d3 ed be 74 63 80 3f
       -0.3716876 -0.44408903 -0.46450493 1.0030351

conv2.lin_dst.weight f4 [3, 32]
000000 f1 23 ed 3f 13 11 97 bf 0c f8 61 3e fe af b9 be
       1.8526593 -1.1802086 0.22067279 -0.36267084
000010 64 55 6d 3f 0f b6 46 3f 9a 1a 87 40 26 f2 d9 3e
       0.9270842 0.7762155 4.2219973 0.42567557
000020 a9 a4 4e 3f 2e 52 84 3f 11 d2 27 40 aa 98 ec be
       0.8072 1.0337579 2.6221964 -0.46210223
000030 0d 0a 20 3f 37 aa 0e 3f 27 69 18 40 3f a2 bf 3d
       0.62515336 0.5572848 2.381418 0.09357118
000040 41 61 51 bf 12 6f 90 3e 41 f6 cd 3f 23 56 6b bf
       -0.8178902 0.2820974 1.6090776 -0.9192831
000050 c7 81 01 c0 ee 18 49 bf 0c e5 26 bf 46 b7 71 bf
       -2.023546 -0.78553665 -0.6519325 -0.9442028
000060 1c 57 df be c1 d1 cd 3f a4 38 0a 3f 1a 84 40 bf
       -0.43621147 1.6079637 0.53992677 -0.7520157
000070 c2 29 8d 3f fe 0b a2 3f e0 f7 36 c0 f8 d2 4b bf
       1.1028368 1.265991 -2.858879 -0.7961879
000080 92 37 2b 40 ab 96 0d 3f 56 52 77 be 37 4c 5f bf
       2.6752667 0.55308026 -0.24152502 -0.8722567
000090 e7 d0 3e 3f 3d 03 24 3f b0 e2 96 3f 8f 8b 1f bf
       0.7453751 0.6406744 1.178793 -0.62322325
0000a0 95 2c 1e 3f e6 65 26 3f 26 da 48 3f af 5f 6c bf
       0.61786777 0.64999235 0.7845787 -0.923335
0000b0 24 96 2c 3f f8 1f 57 3f ba 7b 22 3f f4 05 36 bf
       0.67416596 0.84033155 0.6347004 -0.71102834
0000c0 b8 19 a5 be fd 6b ae 3c e4 2a 42 3e 33 11 f1 3f
       -0.32246184 0.021291727 0.18961674 1.8833374
0000d0 db ba 37 bf bb 79 5c be 3c 27 10 c0 58 c1 80 be
       -0.71769494 -0.21530811 -2.2523947 -0.2514751
0000e0 f8 e1 d7 bf 58 91 17 3e 66 6f 1e 3f f9 90 0c bf
       -1.6865835 0.14801538 0.6188873 -0.5490871
0000f0 28 4b e8 3f 0d 5b 84 3f e0 a2 4c c0 82 ca 87 bd
       1.8147936 1.0340286 -3.197441 -0.06630422
000100 c3 cb 92 bf d3 44 4a 3f ae 05 32 bb a3 85 b0 3b
       -1.1468433 0.7901127 -0.002716403 0.0053870245
000110 72 69 8e 3f 70 1c 81 3f e8 9c d1 3e a3 bc 1b bd
       1.1125929 1.0086803 0.40940022 -0.038021695
000120 8e 7c 6a 3f e3 27 63 3f fd 73 1f 3f c8 75 0c ba
       0.91596305 0.8873274 0.6228636 -0.0005358127
000130 b5 51 80 3f 83 8b 48 bf 9f 75 12 3f 0f 07 35 3c
       1.0024935 -0.7833788 0.57210726 0.011049046
000140 20 cb 9d 3e bb 2c 8b 3f be bb 8e bf d4 a8 3b 3f
       0.30819035 1.0873026 -1.1151044 0.73304486
000150 0a 4b ab 3f 5d b4 98 3e 25 88 78 bf 6a e8 a9 3e
       1.3382275 0.29825106 -0.9708274 0.3318513
000160 33 ce 40 bf 49 2f 8d bf e1 9e a4 3d c4 a4 34 3e
       -0.75314635 -1.1030055 0.08038116 0.17640978
000170 d6 4d be be a3 5f e3 be 97 d3 ed be 74 63 80 3f
       -0.3716876 -0.44408903 -0.46450493 1.0030351
