checkpoint/gcn/model_checkpoint.pt (torch, 2325 bytes, 4 tensors)

conv1.bias f4 [16]
-0.064361 0.6550124 -0.25797716 -0.077038914 0.7246456 -0.16654862 0.6993039 -0.18071891
0.0 0.0 -0.34754762 0.8264223 0.1048708 -0.3897513 -0.34897885 -0.54433686
00000000: b3cf 83bd e5ae 273f 9515 84be 94c6 9dbd
00000010: 6082 393f b98b 2abe 9505 333f 610e 39be
00000020: 0000 0000 0000 0000 c3f1 b1be 6990 533f
00000030: 81c6 d63d 7b8d c7be 5bad b2be a959 0bbf

conv1.lin.weight f4 [16, 3]
-0.67950356 1.4878126 0.10125634 -0.8964228 0.30419427 -0.07640721 0.2852657 -0.35970905
-0.65727377 -0.48213708 -0.074477576 0.06843953 -0.4474434 -0.4850712 0.17840801 0.9381339
-0.46136788 0.1324727 0.17614672 -0.64718914 -0.2731993 -0.43407822 0.33600312 -0.3873561
-0.55900794 -0.49016052 -0.38846433 -0.09837504 -0.5038172 -0.1373396 0.45741412 0.9570584
-0.00054925936 -0.5058388 -0.8189995 0.4698741 0.46447998 -0.4993878 -0.06525781 1.1060773
0.36275586 0.09630074 0.99946636 0.45739147 -0.51098835 0.3393806 1.468238 0.042511843
00000000: f2f3 2dbf a570 be3f 7c5f cf3d f77b 65bf
00000010: 5abf 9b3e 627b 9cbd 590e 923e c92b b8be
00000020: 1843 28bf acda f6be b387 98bd 062a 8c3d
00000030: 4d17 e5be 415b f8be 97b0 363e 8b29 703f
00000040: 6938 ecbe eca6 073e ce5f 343e 30ae 25bf
00000050: c7e0 8bbe 803f debe 9a08 ac3e 8a53 c6be
00000060: 251b 0fbf 52f6 fabe cce4 c6be da78 c9bd
00000070: 2afa 00bf c1a2 0cbe 2f32 ea3e c801 753f
00000080: 2cfc 0fba a77e 01bf f4a9 51bf 5793 f03e
00000090: 52d0 ed3e c2af ffbe e3a5 85bd f193 8d3f
000000a0: 23bb b93e 5339 c53d 07dd 7f3f 372f ea3e
000000b0: 22d0 02bf 4bc3 ad3e 39ef bb3f e620 2e3d

conv2.bias f4 [3]
-0.30780685 -0.34057915 0.0
00000000: dc98 9dbe 6460 aebe 0000 0000

conv2.lin.weight f4 [3, 16]
-0.008172198 -1.560901 -0.25490376 0.03910521 -1.0623344 1.3269384 -0.31638432 0.13259959
0.47938475 0.41089696 0.6100828 -0.9870549 0.22446159 0.73148113 1.1042132 0.3305291
1.3225834 0.34271494 0.029647987 0.46999764 -1.0746174 -0.48053357 -1.1790625 -0.21088876
-0.56014335 -0.18255071 0.7617146 -0.9916999 -0.40654412 0.27078646 0.30736136 0.75636214
-0.011221266 0.12162426 -0.0038381156 0.4934833 0.4402921 0.42909962 -0.23952416 -0.24473879
0.41687614 -0.10981905 0.120284334 0.08710032 -0.2735623 0.3494733 0.19409634 -0.5543188
00000000: afe4 05bc 9bcb c7bf bf82 82be c92c 203d
00000010: 93fa 87bf 1ed9 a93f 20fd a1be 30c8 073e
00000020: eb71 f53e 1661 d23e 632e 1c3f a1af 7cbf
00000030: 42d9 653e 5942 3b3f dc56 8d3f 1c3b a93e
00000040: 6a4a a93f 5578 af3e 56e0 f23c 88a3 f03e
00000050: 108d 89bf 7f08 f6be 85eb 96bf 39f3 57be
00000060: 8e65 0fbf 93ee 3abe baff 423f 0be0 7dbf
00000070: 8d26 d0be 86a4 8a3e 785e 9d3e f3a0 413f
00000080: 67d9 37bc 2416 f93d e588 7bbb d8a9 fc3e
00000090: f76d e13e f2b2 db3e d245 75be ce9c 7abe
000000a0: ca70 d53e cfe8 e0bd a257 f63d a761 b23d
000000b0: 5c10 8cbe 2aee b23e 31c1 463e d6e7 0dbf
